contrib/IAT/models/IAT_lol_3.onnx (onnx, 405463 bytes, 148 tensors)

812 f4 [32, 3, 3, 3]
0.046768054 0.27336425 -2.4744618 -1.0516869 0.46153748 -1.9396665 -0.07255336 -2.9259353
-1.6158537 0.7884069 1.297531 0.61698735 0.34634358 -0.36877793 -3.1847274 -1.9022858
-2.900598 -2.8044631 2.768521 -1.5401525 4.5012937 -3.3314402 -0.0955447 1.9455209
2.6281102 2.3916593 3.6022425 1.4597201 1.7950562 -1.5349913 -1.5083145 2.1851435
1.8239154 -0.6680453 0.17823496 2.08787 -1.8195893 -2.4267302 -1.2038972 1.1068496
-0.070278406 -0.22762081 -0.8987949 0.6270209 -1.5377914 0.12286348 -0.8733159 -0.51326436
-0.96396697 -0.15393203 -1.0989183 0.7718924 -1.8195223 -0.38486734 -1.5424889 1.898577
-0.041776787 -1.1604499 -0.4687837 -1.4003823 1.3507656 -1.2835528 -0.88134277 -0.18228957
0.7602874 -0.61187065 0.503025 1.7644689 -2.308077 0.1398051 0.78951097 -0.93222916
-1.2622446 1.315694 -1.3646677 1.7333052 0.5851354 -1.1023836 -0.18795241 0.63486385
1.0124431 5.8232355 2.8409557 2.6171668 -0.9603177 5.105377 -2.6894112 -0.81562877
1.844904 -0.34094626 -6.255871 -4.80815 -6.0736294 -5.0313234 -3.36689 -3.4039161
2.0078628 -6.4202704 3.7193792 -1.9907717 6.1915374 3.8320074 -0.78263664 -1.8909584
1.9800797 -4.899183 -1.2693664 6.0853577 0.15040722 0.14403467 -0.70918363 -0.28757772
-0.11509651 -0.5909639 -0.34870216 -0.6047716 -1.147581 0.6018379 -0.18197678 -0.49496353
0.1283251 0.90129197 0.21070392 0.00012657505 0.25103307 -0.027774515 1.3521649 0.6128564
-0.0068514748 0.8764401 2.2176669 0.6520849 1.520557 1.222415 0.7066565 -1.7198018
0.5864536 0.19999011 1.4391587 -4.4304304 -0.7396947 2.9821234 2.7819805 -4.655239
1.3112296 -0.3052102 0.10399358 6.550165 2.0590482 -5.3727417 1.940289 4.3956766
-6.99365 3.01501 -3.5061352 -4.885114 4.0582466 -0.85365045 -0.6397659 -0.2925266
4.377282 -4.395016 -2.3067632 -1.4126548 0.41670892 -0.7720135 -1.5232279 1.0595064
0.4829955 0.59335023 2.483887 0.6386916 -0.08535152 -1.0641224 0.60170585 -1.1197536
-0.180467 -0.17383824 0.68333775 2.0040803 -0.5165192 -0.44767833 0.016712165 -1.3104366
-1.8926759 -0.5618052 -1.6251445 -0.509935 0.27812928 2.8050995 4.7792244 -1.2778732
0.7421137 -7.8743515 4.5026264 1.270325 -1.9866742 2.0618486 1.4066175 0.7203127
0.19524816 -4.416386 -2.242889 -5.0439525 -1.9207691 -5.400182 3.6410966 1.8121797
-6.381286 0.12337992 4.90575 1.9537033 5.6513977 -1.2795488 -4.967284 2.8908644
2.0061252 -17.918638 -0.039384704 -8.675792 6.491856 -9.4555645 13.738884 6.7515206
-0.189157 7.9176826 9.042997 12.435363 -19.66343 14.962392 -5.0967383 -3.741402
6.1254478 -11.991294 4.799943 -7.711053 1.0619739 13.75959 -12.0805645 11.778402
-3.3953042 -8.514473 2.6599212 -0.85901165 -0.7630509 -0.7408741 2.5582864 2.3330617
-4.4674273 0.0012643358 2.3628852 2.407774 3.053039 0.31197 2.4533565 3.7557855
00000000: dc8f 3f3d 66f6 8b3e 955d 1ec0 ad9d 86bf
00000010: a44e ec3e fe46 f8bf db96 94bd 8642 3bc0
00000020: 4bd4 cebf 09d5 493f 7f15 a63f e2f2 1d3f
00000030: f253 b13e 76d0 bcbe 93d2 4bc0 1a7e f3bf
00000040: 66a3 39c0 537c 33c0 732f 3140 b823 c5bf
00000050: 990a 9040 5136 55c0 f1ac c3bd d406 f93f
00000060: f532 2840 f210 1940 248b 6640 1cd8 ba3f
00000070: 67c4 e53f 987a c4bf 7310 c1bf 64d9 0b40
00000080: 0f76 e93f 0405 2bbf 3a83 363e a99f 0540
00000090: 4de8 e8bf 8c4f 1bc0 4e19 9abf 3fad 8d3f
000000a0: 20ee 8fbd 6e15 69be 6c17 66bf 7184 203f
000000b0: 59d6 c4bf d99f fb3d a191 5fbf 4b65 03bf
000000c0: 8ac6 76bf 5ca0 1dbe 5ba9 8cbf be9a 453f
000000d0: 1be6 e8bf 550d c5be 4770 c5bf 9204 f33f
000000e0: 231e 2bbd 9f89 94bf 6b04 f0be ba3f b3bf
000000f0: e3e5 ac3f 754b a4bf ae9f 61bf 1eaa 3abe
00000100: 32a2 423f 8ea3 1cbf 3fc6 003f 1eda e13f
00000110: 89b7 13c0 1129 0f3e 641d 4a3f 92a6 6ebf
00000120: 3b91 a1bf a968 a83f 6ead aebf f2dc dd3f
00000130: 6fcb 153f e81a 8dbf 9976 40be 7086 223f
00000140: bc97 813f f257 ba40 38d2 3540 a97f 2740
00000150: 61d7 75bf 405f a340 501f 2cc0 0ccd 50bf
00000160: d025 ec3f 8290 aebe 1830 c8c0 5ddc 99c0
00000170: 2c5b c2c0 9a00 a1c0 207b 57c0 c3d9 59c0
00000180: d380 0040 db72 cdc0 4f0a 6e40 9bd1 febf
00000190: 1321 c640 9c3f 7540 e05a 48bf ed0a f2bf
000001a0: 4073 fd3f 1bc6 9cc0 997a a2bf 40bb c240
000001b0: 5a04 1a3e d37d 133e 0f8d 35bf 633d 93be
000001c0: b8b7 ebbd 6949 17bf 1789 b2be 50d2 1abf
000001d0: efe3 92bf 0c12 1a3f 1f58 3abe dc6b fdbe
000001e0: a867 033e 12bb 663f c5c2 573e 3bb9 0439
000001f0: 6887 803e 6187 e3bc bd13 ad3f 28e4 1c3f
00000200: 5682 e0bb 615e 603f 41ee 0d40 09ef 263f
00000210: 9da1 c23f 1878 9c3f 71e7 343f 7722 dcbf
00000220: d321 163f 35ca 4c3e 5a36 b83f 16c6 8dc0
00000230: a25c 3dbf 1cdb 3e40 f80b 3240 b8f7 94c0
00000240: 5fd6 a73f 8344 9cbe 96fa d43d f49a d140
00000250: 72c7 0340 80ed abc0 645b f83f 62a9 8c40
00000260: fbcb dfc0 edf5 4040 8564 60c0 db52 9cc0
00000270: 28dd 8140 d688 5abf b3c7 23bf 0cc6 95be
00000280: b212 8c40 f9a3 8cc0 02a2 13c0 dfd1 b4bf
00000290: df5a d53e ada2 45bf 22f9 c2bf e89d 873f
000002a0: 304b f73e cde5 173f 01f8 1e40 4b81 233f
000002b0: c7cc aebd 2a35 88bf 6509 1a3f 1654 8fbf
000002c0: 57cc 38be a702 32be 39ef 2e3f da42 0040
000002d0: 9a3a 04bf 1836 e5be f3e7 883c 63bc a7bf
000002e0: 3443 f2bf 77d2 0fbf bc04 d0bf 1a8b 02bf
000002f0: f666 8e3e c086 3340 68ef 9840 5991 a3bf
00000300: 2afb 3d3f b0fa fbc0 8415 9040 029a a23f
00000310: 574b febf 54f5 0340 0b0c b43f 6a66 383f
00000320: 22ef 473e 0953 8dc0 7e8b 0fc0 0f68 a1c0
00000330: c3db f5bf 4ace acc0 ba07 6940 81f5 e73f
00000340: 7f33 ccc0 9dae fc3d e7fb 9c40 f312 fa3f
00000350: 40d8 b440 41c8 a3bf fef3 9ec0 ec03 3940
00000360: 5b64 0040 5f59 8fc1 db51 21bd 0bd0 0ac1
00000370: 49bd cf40 fe49 17c1 78d2 5b41 750c d840
00000380: 5fb2 41be a85d fd40 1eb0 1041 3ff7 4641
00000390: b44e 9dc1 f565 6f41 7b18 a3c0 2173 6fc0
000003a0: ab03 c440 57dc 3fc1 2299 9940 f2c0 f6c0
000003b0: c3ee 873f 4827 5c41 fe49 41c1 5674 3c41
000003c0: aa4c 59c0 483b 08c1 263c 2a40 30e8 5bbf
000003d0: 4e57 43bf eda9 3dbf f7ba 2340 e250 1540
000003e0: 2af5 8ec0 12b8 a53a 8339 1740 f818 1a40
000003f0: fe64 4340 88ba 9f3e cb03 1d40 ca5e 7040

813 f4 [32]
0.30779776 0.20159605 0.06356932 0.38196552 -0.46928537 0.19087279 0.28402013 0.18727821
-0.3560767 0.22147924 0.26083225 0.1226512 0.366294 0.07749465 0.08695948 0.31093332
-0.11246948 -0.52977383 -0.15985061 0.1760345 -0.34935635 0.009054147 0.13592362 -0.1112485
-0.13776201 0.46704265 -0.30516827 0.3746817 0.1895438 -0.4906611 -0.11974172 -0.13486072
00000000: ab97 9d3e 326f 4e3e a230 823d fc90 c33e
00000010: 2c46 f0be 2874 433e 166b 913e dcc5 3f3e
00000020: af4f b6be 74cb 623e ce8b 853e 8d30 fb3d
00000030: e38a bb3e 84b5 9e3d d017 b23d a732 9f3e
00000040: 6656 e6bd 429f 07bf e1af 23be 6342 343e
00000050: d6de b2be d857 143c 902f 0b3e 41d6 e3bd
00000060: 7c11 0dbe 3720 ef3e 043f 9cbe 48d6 bf3e
00000070: c517 423e ef37 fbbe 263b f5bd ee18 0abe

815 f4 [64, 32, 3, 3]
9.463255e-06 9.159429e-06 7.482467e-06 7.5627468e-06 7.434267e-06 6.6206067e-06 6.292724e-06 6.713526e-06
6.3928774e-06 -7.693013e-06 -5.7091092e-06 -5.704179e-06 -5.5233722e-06 -5.7169123e-06 -6.3387442e-06 -7.4985314e-06
-5.8211317e-06 -7.4946875e-06 1.0406806e-06 -9.262585e-08 -1.424011e-06 1.2643313e-06 5.8068224e-07 -1.7762675e-06
1.9341128e-06 -4.1493936e-07 9.953633e-08 -3.606369e-06 6.994639e-07 3.8779913e-06 -1.352139e-06 3.0681053e-06
2.4992255e-06 -9.721018e-07 4.1224944e-06 2.457685e-06 -1.7410344e-05 -1.895254e-05 -1.7779234e-05 -1.9177513e-05
-2.1337317e-05 -1.983981e-05 -1.7457885e-05 -1.9309075e-05 -1.770742e-05 -3.892917e-06 -1.215643e-05 -2.4933539e-05
-4.53991e-06 -1.4790192e-05 -2.0740312e-05 -2.9479731e-06 -1.485602e-05 -1.5245303e-05 -1.4358387e-05 -1.0341448e-05
-1.08026325e-05 -1.0122607e-05 -7.60085e-06 -9.846811e-06 -1.1776698e-05 -9.592997e-06 -1.11757945e-05 1.6595712e-07
6.2549084e-06 1.9537927e-06 4.172157e-07 4.2269407e-06 -1.459655e-06 -2.608531e-06 1.458686e-06 -1.3314949e-06
-5.5802575e-06 -9.038044e-06 -8.687853e-06 -7.229666e-06 -1.2003252e-05 -1.3816706e-05 -9.128055e-06 -1.5825975e-05
-1.2074464e-05 -1.1405519e-05 -1.0725819e-05 -1.5397594e-05 -9.809333e-06 -1.1362541e-05 -1.6615964e-05 -1.3641915e-05
-1.4732604e-05 -1.6871365e-05 -9.27946e-06 -1.5725582e-05 7.1697045e-06 2.293049e-06 -8.059955e-06 -7.3597066e-06
-5.076601e-06 3.957254e-06 -6.8810573e-06 2.8283603e-06 1.8463432e-07 2.1942926e-06 9.2482435e-07 -4.2408777e-07
-1.644424e-06 1.8328419e-07 -2.6256341e-06 3.2210826e-07 -1.2952515e-05 -1.398764e-05 -1.6128692e-05 -1.3583449e-05
-1.2702862e-05 -1.5734027e-05 -1.3393977e-05 -1.4105259e-05 -1.5167364e-05 1.4248519e-06 -2.5403372e-07 -2.670259e-06
3.4713935e-06 1.2726254e-06 -1.18756475e-07 3.4883294e-06 2.060484e-06 1.4398304e-06 -5.155871e-06 -1.3365242e-05
-1.2531121e-05 -1.5338715e-06 -6.620157e-06 -9.985592e-06 6.6639785e-07 -6.5856625e-06 -5.5215473e-06 -1.0085145e-05
-5.9156832e-06 -7.870705e-06 -6.412682e-06 -5.35262e-06 -6.174118e-06 -5.499924e-06 -3.7616608e-06 -7.15854e-06
1.1922899e-06 7.4651816e-06 9.777001e-06 4.904494e-08 5.914414e-06 8.3034965e-06 4.3514474e-06 7.0517003e-06
4.0077753e-06 -1.6905327e-05 -1.3850817e-05 -9.093641e-06 -1.6604019e-05 -1.2603646e-05 -9.005403e-06 -1.3787074e-05
-1.0521871e-05 -8.046352e-06 2.9876233e-07 -3.0797285e-06 -2.3856414e-06 -3.1898978e-06 -4.2970096e-06 1.8829363e-06
-2.2787046e-06 -2.3161244e-06 3.679777e-07 6.386527e-06 5.398118e-06 -7.2451007e-06 -2.5889312e-06 -8.250867e-06
-9.978376e-06 -3.5470202e-06 -5.1153584e-06 -1.0114676e-05 -1.6011432e-05 -2.430035e-05 -2.6588898e-05 -1.27153635e-05
-1.7116789e-05 -2.0983978e-05 -3.7904417e-06 -1.1825884e-05 -1.4415477e-05 6.3704724e-06 5.090512e-06 4.135486e-06
8.256863e-07 -7.36723e-07 -3.4034863e-06 -1.1347945e-06 -2.0671823e-06 -4.6364216e-06 -8.63759e-06 -1.1179199e-05
-1.3723741e-05 -7.4163363e-06 -1.0055148e-05 -1.4326329e-05 -8.27499e-06 -4.399799e-06 -1.1254802e-05 4.045967e-06
3.2085234e-06 -1.7447103e-06 -1.6579048e-05 -1.5696158e-05 -1.3390245e-05 -1.8870795e-05 -1.8294395e-05 -1.6628886e-05
4.0062478e-06 5.455198e-06 6.742261e-06 1.7682202e-06 3.5247579e-06 5.710395e-06 1.448211e-06 2.203653e-06
4.4573376e-06 -5.295561e-06 -3.1949214e-06 -6.0066595e-06 -3.6150109e-06 -2.36517e-06 -5.0409544e-06 -4.4207495e-06
-2.7475762e-06 -4.6559207e-06 -1.1492895e-05 -8.698509e-06 -6.7478454e-06 -2.0158825e-05 -8.812213e-06 -7.3395963e-06
-1.1701405e-05 -5.1421785e-06 -3.9357137e-06 6.774418e-07 -5.703976e-06 -1.0300529e-05 -5.5452797e-06 -1.9364038e-06
4.7953745e-07 -3.5208059e-06 8.274721e-06 -9.879276e-06 -1.0149786e-05 -1.2986604e-05 -9.604587e-06 -5.276838e-06
00000000: 5fc4 1e37 73ab 1937 e711 fb36 80c3 fd36
00000010: de73 f936 9426 de36 1626 d336 c044 e136
00000020: 6682 d636 3d11 01b7 e090 bfb6 8666 bfb6
00000030: 6855 b9b6 e7d3 bfb6 66b1 d4b6 e59b fbb6
00000040: 2453 c3b6 e07a fbb6 83ad 8b35 99e9 c6b3
00000050: a520 bfb5 18b2 a935 2ee0 1b35 1668 eeb5
00000060: cecb 0136 d5c4 deb4 adc0 d533 f304 72b6
00000070: cbc2 3b35 b11f 8236 247b b5b5 a6e5 4d36
00000080: 5eb8 2736 2a79 82b5 f553 8a36 b5ee 2436
00000090: 6e0c 92b7 45fc 9eb7 9d24 95b7 65df a0b7
000000a0: 8afd b2b7 ab6d a6b7 8672 92b7 ecf9 a1b7
000000b0: 658a 94b7 e79f 82b6 78f3 4bb7 5e28 d1b7
000000c0: 8855 98b6 6423 78b7 7bfb adb7 cbd5 45b6
000000d0: 1f3e 79b7 14c6 7fb7 cde4 70b7 2e80 2db7
000000e0: f43c 35b7 44d4 29b7 ce0a ffb6 bb33 25b7
000000f0: 8894 45b7 9cf1 20b7 ac7f 3bb7 f231 3234
00000100: 41e1 d136 e71d 0336 b0fd df34 25d5 8d36
00000110: 5de9 c3b5 390e 2fb6 12c8 c335 d1b5 b2b5
00000120: 0c3e bbb6 1aa2 17b7 0bc2 11b7 5c96 f2b6
00000130: 9361 49b7 4dce 67b7 b324 19b7 06c2 84b7
00000140: 6e93 4ab7 555a 3fb7 0bf3 33b7 152a 81b7
00000150: c492 24b7 bea1 3eb7 8362 8bb7 94df 64b7
00000160: 0d2c 77b7 fb86 8db7 faae 1bb7 6eea 83b7
00000170: 4b93 f036 48e2 1936 3e39 07b7 66f3 f6b6
00000180: ac57 aab6 8ec8 8436 d5e3 e6b6 dcce 3d36
00000190: e53f 4634 a941 1336 7241 7835 2eae e3b4
000001a0: fab5 dcb5 c6cc 4434 0d34 30b6 39ee ac34
000001b0: a14e 59b7 75ac 6ab7 1a4c 87b7 78e4 63b7
000001c0: 601e 55b7 91fc 83b7 b1b6 60b7 a0a5 6cb7
000001d0: 5577 7eb7 8a3d bf35 2162 88b4 b332 33b6
000001e0: 16f6 6836 13cf aa35 1007 ffb3 0b19 6a36
000001f0: d846 0a36 3240 c135 9800 adb6 473b 60b7
00000200: c13c 52b7 6cdf cdb5 b722 deb6 cb87 27b7
00000210: 83e2 3235 69fa dcb6 bb45 b9b6 5e33 29b7
00000220: 557f c6b6 6c0c 04b7 852c d7b6 a89a b3b6
00000230: 452b cfb6 fd8b b8b6 d770 7cb6 6433 f0b6
00000240: c506 a035 6c7d fa36 e607 2437 7ba5 5233
00000250: 6e74 c636 3f4f 0b37 a602 9236 a59d ec36
00000260: 877a 8636 eacf 8db7 ce60 68b7 e490 18b7
00000270: dc48 8bb7 3f74 53b7 e915 17b7 084f 67b7
00000280: 1887 30b7 d2fe 06b7 9565 a034 55ad 4eb6
00000290: 0219 20b6 0712 56b6 082f 90b6 33b9 fc35
000002a0: d9eb 18b6 b76e 1bb6 788e c534 d94b d636
000002b0: 7b21 b536 f11a f3b6 80bd 2db6 346d 0ab7
000002c0: cc68 27b7 5809 6eb6 98a4 abb6 34b2 29b7
000002d0: 4a50 86b7 9bd8 cbb7 390b dfb7 1254 55b7
000002e0: 0696 8fb7 c006 b0b7 4b5f 7eb6 c967 46b7
000002f0: 01da 71b7 f1c1 d536 2acf aa36 8ec3 8a36
00000300: bba4 5d35 38c3 45b5 7367 64b6 3e4f 98b5
00000310: ecb9 0ab6 8f92 9bb6 2bea 10b7 4b8e 3bb7
00000320: 053f 66b7 d8d9 f8b6 88b2 28b7 1d5b 70b7
00000330: d0d4 0ab7 fca1 93b6 02d3 3cb7 98c2 8736
00000340: 0352 5736 ca2b eab5 3c13 8bb7 3eab 83b7
00000350: aaa6 60b7 b94c 9eb7 ea76 99b7 437e 8bb7
00000360: 686d 8636 cb0b b736 953b e236 9553 ed35
00000370: e18a 6c36 eb9b bf36 2760 c235 78e2 1336
00000380: 3d90 9536 86b0 b1b6 5568 56b6 d08c c9b6
00000390: 6a99 72b6 50b9 1eb6 7825 a9b6 f355 94b6
000003a0: 0063 38b6 0e3a 9cb6 9cd1 40b7 d0ef 11b7
000003b0: 8d6b e2b6 bf1a a9b7 2bd8 13b7 a746 f6b6
000003c0: 2751 44b7 fa8a acb6 860f 84b6 72d9 3535
000003d0: c864 bfb6 6fd0 2cb7 9711 bab6 2af3 01b6
000003e0: 90b9 0035 fc46 6cb6 a8d3 0a37 2bbf 25b7
000003f0: 0049 2ab7 0ae1 59b7 6323 21b7 b10f b1b6

816 f4 [64]
0.008899608 0.11584533 0.020822257 0.024741542 0.14823292 0.04022581 -0.03576137 0.024917668
0.025965368 0.041365366 0.02015062 0.045845143 0.0213399 0.023249282 0.15169394 -0.11324149
0.020874124 0.017423932 0.024773767 -0.10109714 0.0761222 0.021137353 0.026762176 -0.054248497
0.020977736 -0.116427146 -0.21340688 0.017933464 -0.008344951 0.12983945 0.057593353 0.02413565
-0.011439785 -0.123420924 -0.056014806 -0.02270552 -0.019519381 0.022971544 0.33339152 0.2236617
0.019799279 0.15760998 0.0345126 0.015725676 -0.035075333 -0.11658994 -0.049292736 0.025524203
0.021564921 0.019492486 0.027447801 0.017513555 0.01974338 0.02116572 0.020731183 -0.14593723
0.056953304 0.020478353 0.015912902 0.10115206 -0.008856792 0.012245946 0.014812963 0.021485332
00000000: a9cf 113c 5140 ed3d 7093 aa3c c6ae ca3c
00000010: 5fca 173e d2c3 243d 847a 12bd 2320 cc3c
00000020: 53b5 d43c bb6e 293d ea12 a53c 1ec8 3b3d
00000030: 04d1 ae3c 4775 be3c a855 1b3e 28eb e7bd
00000040: 3600 ab3c a2bc 8e3c 5bf2 ca3c 040c cfbd
00000050: f5e5 9b3d 3e28 ad3c 5a3c db3c ac33 5ebd
00000060: 80d9 ab3c 5b71 eebd 5587 5abe 33e9 923c
00000070: 43b9 08bc a2f4 043e 02e7 6b3d 20b8 c53c
00000080: f06d 3bbc 1cc4 fcbd c86f 65bd ed00 babc
00000090: 1ce7 9fbc d22e bc3c 4bb2 aa3e 9307 653e
000000a0: 1932 a23c 8364 213e 165d 0d3d 22d3 803c
000000b0: 27ab 0fbd b5c6 eebd 2ee7 49bd 2218 d13c
000000c0: eba8 b03c b5ae 9f3c 36da e03c 9678 8f3c
000000d0: debc a13c bb63 ad3c 71d4 a93c 9270 15be
000000e0: de47 693d 38c2 a73c c65b 823c d028 cf3d
000000f0: 141c 11bc 38a3 483c 12b2 723c 0202 b03c

817 f4 [16, 16]
-2.592e-41 5.94e-43 -5.84e-43 6.484e-42 -2.4973e-41 -2.4074e-41 2.4968e-41 -1.4974e-41
-1.6987e-41 -1.6987e-41 -1.7012e-41 -6.43e-43 2.4981e-41 -2.4949e-41 -1.6994e-41 2.4943e-41
-5.79e-43 6.03e-43 1.6937e-41 5.82e-43 -1.6985e-41 -1.251e-41 -2.4943e-41 -6.04e-43
2.4981e-41 1.7008e-41 -6.29e-43 -5.87e-43 1.6922e-41 1.6988e-41 -3.6557e-41 1.7012e-41
1.6998e-41 1.694e-41 9.994e-42 -2.496e-41 2.4984e-41 -1.702e-41 5.72e-43 -2.497e-41
-2.501e-41 1.6984e-41 -1.4984e-41 -2.4974e-41 5.79e-43 1.4984e-41 2.4956e-41 -1.6994e-41
5.94e-43 1.6995e-41 -1.6994e-41 -2.97e-43 -1.6939e-41 -5.56e-43 2.4964e-41 -2.4968e-41
-1.6961e-41 2.493e-42 -1.6994e-41 1.699e-41 6.05e-43 -2.5005e-41 -5.91e-43 -1.6984e-41
1.6982e-41 -1.6973e-41 2.4995e-41 -1.4985e-41 5.76e-43 5.84e-43 -2.5892e-41 5.9e-43
-1.4914e-41 -5.65e-43 -1.4962e-41 1.6964e-41 1.697e-41 5.2353e-41 3.016e-42 -1.7003e-41
-5.34e-43 -1.6964e-41 5.48e-43 -9.993e-42 -1.6996e-41 -2.4977e-41 5.89e-43 2.4981e-41
-6.15e-43 2.4966e-41 5.8777e-41 -2.4978e-41 2.5019e-41 -1.4966e-41 -1.6922e-41 -6.01e-43
-5.86e-43 -1.6988e-41 -5.93e-43 6.488e-42 2.4974e-41 -2.5033e-41 -1.6971e-41 -2.4985e-41
-2.4775e-41 2.495e-41 -1.6974e-41 6.42e-43 6.49e-43 -9.981e-42 1.6964e-41 1.6988e-41
1.6985e-41 -1.6959e-41 -5.83e-43 2.4966e-41 -9.993e-42 1.0022e-41 -6.36e-43 -2.4954e-41
-4.6143e-41 -1.6928e-41 -2.4973e-41 -5.93e-43 -1.6952e-41 1.7027e-41 2.4968e-41 2.5017e-41
-2.4953e-41 -5.93e-43 -2.4974e-41 6.45e-43 6.14e-43 -1.704e-41 5.63e-43 -5.69e-43
3.014e-42 -2.4978e-41 -2.4995e-41 2.496e-41 -5.84e-43 2.4963e-41 -5.94e-43 -2.4968e-41
6e-43 -9.99e-42 -6.32e-43 -2.4932e-41 -3e-42 -6.01e-43 -2.4961e-41 -5.84e-43
-6.43e-43 -1.6949e-41 -1.478e-41 1.6984e-41 1.6967e-41 -2.4963e-41 -5.2308e-41 -5.96e-43
1.6974e-41 2.4964e-41 3.017e-42 -1.6932e-41 2.4952e-41 -2.4961e-41 1.7882e-41 2.4968e-41
-2.4978e-41 -5.84e-43 -1.699e-41 -2.4961e-41 -1.6973e-41 5.91e-43 -1.4988e-41 5.91e-43
-1.7914e-41 -1.69e-41 2.4947e-41 5.63e-43 -2.592e-41 2.992e-42 1.6994e-41 -6.36e-43
5.96e-43 -1.6973e-41 -2.5003e-41 -5.9967e-41 3.002e-42 -2.967e-42 -3.007e-42 -4.6148e-41
-5.9e-43 2.4985e-41 2.4954e-41 1.6992e-41 -2.5024e-41 2.493e-41 2.4973e-41 -2.4947e-41
-2.5023e-41 2.4973e-41 -5.87e-43 1.6978e-41 -1.6981e-41 -1.6926e-41 -6.35e-43 -1.6922e-41
-2.4954e-41 -2.4942e-41 2.4991e-41 -5.62e-43 1.4971e-41 1.7026e-41 1.6987e-41 -1.6968e-41
-5.76e-43 2.4996e-41 2.3693e-41 -6.54e-43 -1.6932e-41 1.701e-41 -2.4971e-41 2.4996e-41
3.013e-42 -4.63e-41 -2.4963e-41 -1.6947e-41 -2.4994e-41 -1.7016e-41 -5.63e-43 -2.499e-41
1.4809e-41 -1.6988e-41 -1.6996e-41 -2.4964e-41 -3.014e-42 -9.991e-42 6.32e-43 1.7003e-41
1.6998e-41 -1.6945e-41 1.7937e-41 -1.6991e-41 1.698e-41 -2.4973e-41 -1.6925e-41 -1.6925e-41
1.6971e-41 2.4963e-41 -2.4971e-41 1.499e-41 -5.2212e-41 1.6999e-41 5.2348e-41 5.84e-43
00000000: 4148 0080 a801 0000 a101 0080 1312 0000
00000010: 9d45 0080 1c43 0080 9a45 0000 be29 0080
00000020: 5a2f 0080 5a2f 0080 6c2f 0080 cb01 0080
00000030: a345 0000 8c45 0080 5f2f 0080 8845 0000
00000040: 9d01 0080 ae01 0000 372f 0000 9f01 0000
00000050: 592f 0080 df22 0080 8845 0080 af01 0080
00000060: a345 0000 692f 0000 c101 0080 a301 0080
00000070: 2c2f 0000 5b2f 0000 e865 0080 6c2f 0000
00000080: 622f 0000 392f 0000 dc1b 0000 9445 0080
00000090: a545 0000 722f 0080 9801 0000 9b45 0080
000000a0: b845 0080 582f 0000 c529 0080 9e45 0080
000000b0: 9d01 0000 c529 0000 9145 0000 5f2f 0080
000000c0: a801 0000 602f 0000 5f2f 0080 d400 0080
000000d0: 382f 0080 8d01 0080 9745 0000 9a45 0080
000000e0: 482f 0080 f306 0000 5f2f 0080 5c2f 0000
000000f0: b001 0000 b445 0080 a601 0080 582f 0080
00000100: 572f 0000 502f 0080 ad45 0000 c629 0080
00000110: 9b01 0000 a101 0000 2d48 0080 a501 0000
00000120: 9329 0080 9301 0080 b529 0080 4a2f 0000
00000130: 4e2f 0000 f091 0000 6808 0000 662f 0080
00000140: 7d01 0080 4a2f 0080 8701 0000 db1b 0080
00000150: 612f 0080 a045 0080 a401 0000 a345 0000
00000160: b701 0080 9845 0000 d9a3 0000 a145 0080
00000170: be45 0000 b829 0080 2c2f 0080 ad01 0080
00000180: a201 0080 5b2f 0080 a701 0080 1612 0000
00000190: 9e45 0000 c845 0080 4f2f 0080 a645 0080
000001a0: 1045 0080 8d45 0000 512f 0080 ca01 0000
000001b0: cf01 0000 d31b 0080 4a2f 0000 5b2f 0000
000001c0: 592f 0000 462f 0080 a001 0080 9845 0000
000001d0: db1b 0080 f01b 0000 c601 0080 9045 0080
000001e0: a180 0080 302f 0080 9d45 0080 a701 0080
000001f0: 412f 0080 772f 0000 9a45 0000 bd45 0000
00000200: 8f45 0080 a701 0080 9e45 0080 cc01 0000
00000210: b601 0000 802f 0080 9201 0000 9601 0080
00000220: 6708 0000 a145 0080 ad45 0080 9445 0000
00000230: a101 0080 9645 0000 a801 0080 9a45 0080
00000240: ac01 0000 d91b 0080 c301 0080 8045 0080
00000250: 5d08 0080 ad01 0080 9545 0080 a101 0080
00000260: cb01 0080 3f2f 0080 3329 0080 582f 0000
00000270: 4c2f 0000 9645 0080 d091 0080 a901 0080
00000280: 512f 0000 9745 0000 6908 0000 332f 0080
00000290: 8e45 0000 9545 0080 d931 0000 9a45 0000
000002a0: a145 0080 a101 0080 5c2f 0080 9545 0080
000002b0: 502f 0080 a601 0000 c829 0080 a601 0000
000002c0: f031 0080 1c2f 0080 8b45 0000 9201 0000
000002d0: 4148 0080 5708 0000 5f2f 0000 c601 0080
000002e0: a901 0000 502f 0080 b345 0080 2aa7 0080
000002f0: 5e08 0000 4508 0080 6208 0080 a480 0080
00000300: a501 0080 a645 0000 9045 0000 5e2f 0000
00000310: c245 0080 7f45 0000 9d45 0000 8b45 0080
00000320: c145 0080 9d45 0000 a301 0080 542f 0000
00000330: 562f 0080 2f2f 0080 c501 0080 2c2f 0080
00000340: 9045 0080 8745 0080 aa45 0000 9101 0080
00000350: bc29 0000 762f 0000 5a2f 0000 4d2f 0080
00000360: 9b01 0080 ae45 0000 0c42 0000 d301 0080
00000370: 332f 0080 6b2f 0000 9c45 0080 ae45 0000
00000380: 6608 0000 1181 0080 9645 0080 3e2f 0080
00000390: ac45 0080 6f2f 0080 9201 0080 a945 0080
000003a0: 4829 0000 5b2f 0080 612f 0080 9745 0080
000003b0: 6708 0080 da1b 0080 c301 0000 662f 0000
000003c0: 622f 0000 3c2f 0080 0032 0000 5d2f 0080
000003d0: 552f 0000 9d45 0080 2e2f 0080 2e2f 0080
000003e0: 4f2f 0000 9645 0000 9c45 0080 c929 0000
000003f0: 8c91 0080 632f 0000 ed91 0000 a101 0000

818 f4 [16, 16]
-5.97e-43 -1.692e-41 1.4988e-41 -6.12e-43 5.8e-43 5.6e-43 -2.4923e-41 -5.47e-43
-1.6992e-41 3.9428e-41 6.03e-43 2.499e-41 -3.018e-42 -6.1e-43 -1.7e-41 3.016e-42
-2.4947e-41 -1.698e-41 -1.7006e-41 3e-43 -2.4981e-41 -2.4978e-41 2.5033e-41 -5.87e-43
-1.6991e-41 -3.007e-42 1.7023e-41 -1.6942e-41 -6.03e-43 -1.499e-41 -6.47e-43 1.0022e-41
1.6988e-41 1.6923e-41 1.6946e-41 1.6949e-41 1.6952e-41 2.5002e-41 9.997e-42 -5.72e-43
-6.04e-43 -5.8812e-41 -1.699e-41 1.6991e-41 1.695e-41 1.6918e-41 2.4957e-41 1.6991e-41
-5.93e-43 2.4974e-41 2.4999e-41 -5.66e-43 -2.4936e-41 -1.2486e-41 -1.4988e-41 2.4947e-41
-5.98e-43 -2.498e-41 3.5446e-41 6.2e-43 -1.6985e-41 -5.75e-43 2.4984e-41 5.97e-43
-2.5016e-41 -6.1e-43 -1.6967e-41 1.6988e-41 -1.4984e-41 -1.6973e-41 -2.4982e-41 -1.4955e-41
1.6968e-41 -5.89e-43 6.42e-43 -6.05e-43 5.76e-43 1.4987e-41 1.4977e-41 -1.0002e-41
-6.07e-43 -1.4984e-41 -1.6987e-41 2.497e-41 -2.4988e-41 -2.5022e-41 2.4936e-41 4.23e-43
-6.01e-43 2.5023e-41 5.75e-43 -5.93e-43 2.589e-41 6.3e-43 -2.804e-42 2.4967e-41
5.76e-43 -5.9e-43 2.5006e-41 -1.6977e-41 -2.967e-42 -9.987e-42 2.4981e-41 -2.497e-41
1.499e-41 -1.6974e-41 1.6919e-41 -1.7009e-41 -6.345e-42 5.2343e-41 1.6918e-41 1.702e-41
-1.6922e-41 -6.05e-43 -2.4981e-41 -1.6946e-41 -3.011e-42 -2.4998e-41 1.6946e-41 -1.6982e-41
2.4971e-41 -3e-42 -1.6925e-41 -2.4971e-41 -2.4991e-41 2.493e-42 2.4988e-41 2.4985e-41
-1.4978e-41 5.87e-43 1.6977e-41 5.83e-43 -6.57e-43 6.3e-43 3.009e-42 5.89e-43
1.6946e-41 -1.7015e-41 -2.4953e-41 1.692e-41 -3.3529e-41 -6.21e-43 -2.498e-41 2.4778e-41
1.6968e-41 -5.93e-43 -2.4967e-41 1.0029e-41 5.93e-43 -1.7002e-41 -5.2316e-41 -1.6964e-41
-2.4985e-41 -2.5e-41 4.6177e-41 1.4976e-41 -1.6959e-41 2.378e-42 1.478e-41 6.17e-43
1.4983e-41 2.497e-41 1.692e-41 1.0016e-41 6.57e-43 1.6977e-41 -2.4985e-41 9.995e-42
1.6968e-41 -1.7005e-41 2.4974e-41 -1.2909e-41 6.54e-43 -2.4992e-41 5.89e-43 5.84e-43
1.697e-41 -2.4975e-41 -1.498e-41 -2.5022e-41 -2.4974e-41 -1.0717e-41 -1.6957e-41 2.4952e-41
5.86e-43 2.4959e-41 6.1e-43 1.6982e-41 -2.4988e-41 -2.4985e-41 5.2329e-41 2.5003e-41
6.28e-43 9.983e-42 -6.07e-43 1.6982e-41 1.7008e-41 1.6973e-41 2.939e-42 5.89e-43
1.6953e-41 -1.6984e-41 6.39e-43 -6.28e-43 1.6935e-41 -1.6991e-41 -2.99e-42 -2.4914e-41
-6.33e-43 5.83e-43 -2.4961e-41 -6.07e-43 -3.013e-42 -1.4963e-41 -2.992e-42 -5.2075e-41
5.82e-43 1.6999e-41 2.5008e-41 2.4966e-41 5.83e-43 -5.94e-43 1.698e-41 2.4966e-41
-6.57e-43 -5.55e-43 1.6919e-41 -1.6933e-41 -5.2326e-41 -6.53e-43 5.91e-43 2.498e-41
2.4922e-41 2.4968e-41 1.7023e-41 5.98e-43 -5.2338e-41 1.6886e-41 1.6987e-41 -6.3e-43
4.0036e-41 2.4966e-41 6.17e-43 6.07e-43 1.6964e-41 -1.4959e-41 1.6933e-41 -2.498e-41
6.01e-43 -2.4984e-41 2.4992e-41 -5.98e-43 -1.4967e-41 2.5031e-41 -3.003e-42 3.016e-42
00000000: aa01 0080 2b2f 0080 c829 0000 b501 0080
00000010: 9e01 0000 9001 0000 7a45 0080 8601 0080
00000020: 5e2f 0080 e96d 0000 ae01 0000 a945 0000
00000030: 6a08 0080 b301 0080 642f 0080 6808 0000
00000040: 8b45 0080 552f 0080 682f 0080 d600 0000
00000050: a345 0080 a145 0080 c845 0000 a301 0080
00000060: 5d2f 0080 6208 0080 742f 0000 3a2f 0080
00000070: ae01 0080 c929 0080 ce01 0080 f01b 0000
00000080: 5b2f 0000 2d2f 0000 3d2f 0000 3f2f 0000
00000090: 412f 0000 b245 0000 de1b 0000 9801 0080
000000a0: af01 0080 f2a3 0080 5c2f 0080 5d2f 0000
000000b0: 402f 0000 292f 0000 9245 0000 5d2f 0000
000000c0: a701 0080 9e45 0000 b045 0000 9401 0080
000000d0: 8345 0080 ce22 0080 c829 0080 8b45 0000
000000e0: ab01 0080 a245 0080 cf62 0000 ba01 0000
000000f0: 592f 0080 9a01 0080 a545 0000 aa01 0000
00000100: bc45 0080 b301 0080 4c2f 0080 5b2f 0000
00000110: c529 0080 502f 0080 a445 0080 b029 0080
00000120: 4d2f 0000 a401 0080 ca01 0000 b001 0080
00000130: 9b01 0000 c729 0000 c029 0000 e21b 0080
00000140: b101 0080 c529 0080 5a2f 0080 9b45 0000
00000150: a845 0080 c045 0080 8345 0000 2e01 0000
00000160: ad01 0080 c145 0000 9a01 0000 a701 0080
00000170: 2c48 0000 c201 0000 d107 0080 9945 0000
00000180: 9b01 0000 a501 0080 b545 0000 532f 0080
00000190: 4508 0080 d71b 0080 a345 0000 9b45 0080
000001a0: c929 0000 512f 0080 2a2f 0000 6a2f 0080
000001b0: b011 0080 e991 0000 292f 0000 722f 0000
000001c0: 2c2f 0080 b001 0080 a345 0080 3d2f 0080
000001d0: 6508 0080 af45 0080 3d2f 0000 572f 0080
000001e0: 9c45 0000 5d08 0080 2e2f 0080 9c45 0080
000001f0: aa45 0080 f306 0000 a845 0000 a645 0000
00000200: c129 0080 a301 0000 532f 0000 a001 0000
00000210: d501 0080 c201 0000 6308 0000 a401 0000
00000220: 3d2f 0000 6e2f 0080 8f45 0080 2b2f 0000
00000230: 775d 0080 bb01 0080 a245 0080 1245 0000
00000240: 4d2f 0000 a701 0080 9945 0080 f51b 0000
00000250: a701 0000 652f 0080 d691 0080 4a2f 0080
00000260: a645 0080 b145 0080 b980 0000 bf29 0000
00000270: 462f 0080 a106 0000 3329 0000 b801 0000
00000280: c429 0000 9b45 0000 2b2f 0000 ec1b 0000
00000290: d501 0000 532f 0000 a645 0080 dd1b 0000
000002a0: 4d2f 0000 672f 0080 9e45 0000 fc23 0080
000002b0: d301 0000 ab45 0080 a401 0000 a101 0000
000002c0: 4e2f 0000 9f45 0080 c229 0080 c045 0080
000002d0: 9e45 0080 e01d 0080 452f 0080 8e45 0000
000002e0: a201 0000 9345 0000 b301 0000 572f 0000
000002f0: a845 0080 a645 0080 df91 0000 b345 0000
00000300: c001 0000 d41b 0000 b101 0080 572f 0000
00000310: 692f 0000 502f 0000 3108 0000 a401 0000
00000320: 422f 0000 582f 0080 c801 0000 c001 0080
00000330: 352f 0000 5d2f 0080 5608 0080 7345 0080
00000340: c401 0080 a001 0000 9545 0080 b101 0080
00000350: 6608 0080 b629 0080 5708 0080 2a91 0080
00000360: 9f01 0000 632f 0000 b645 0000 9845 0000
00000370: a001 0000 a801 0080 552f 0000 9845 0000
00000380: d501 0080 8c01 0080 2a2f 0000 342f 0080
00000390: dd91 0080 d201 0080 a601 0000 a245 0000
000003a0: 7945 0000 9a45 0000 742f 0000 ab01 0000
000003b0: e691 0080 122f 0000 5a2f 0000 c201 0080
000003c0: 9b6f 0000 9845 0000 b801 0000 b101 0000
000003d0: 4a2f 0000 b329 0080 342f 0000 a245 0080
000003e0: ad01 0000 a545 0080 ab45 0000 ab01 0080
000003f0: b929 0080 c745 0000 5f08 0080 6808 0000

819 f4 [16, 16]
-1.6987e-41 6.25e-43 -9.988e-42 -3.013e-42 1.4985e-41 1.6992e-41 1.7026e-41 -5.86e-43
-1.692e-41 2.5029e-41 -5.89e-43 -2.4978e-41 -5.82e-43 5.52e-43 5.75e-43 1.6988e-41
1.6992e-41 -1.4981e-41 -6.24e-43 1.6984e-41 -6.43e-43 1.7e-41 -5.8818e-41 1.6978e-41
-2.4967e-41 -1.6985e-41 1.6991e-41 3.016e-42 -1.6968e-41 -6.07e-43 -5.7e-43 -5.93e-43
-9.981e-42 -1.7037e-41 -2.4954e-41 5.87e-43 -1.6966e-41 -5.97e-43 -1.6988e-41 -2.4961e-41
-1.6968e-41 -5.87e-43 -6.14e-43 9.979e-42 1.6968e-41 1.6918e-41 -1.6968e-41 -6.57e-43
-6.32e-43 -1.6988e-41 -2.5002e-41 -5.89e-43 -1.7179e-41 2.4985e-41 6.15e-43 -2.38e-41
-2.4968e-41 6.03e-43 -9.984e-42 1.6959e-41 1.699e-41 -2.4973e-41 -5.89e-43 -2.974e-42
1.6956e-41 -2.4977e-41 2.503e-41 -2.5002e-41 -2.4968e-41 -2.4977e-41 6.04e-43 6.56e-43
5.75e-43 -6.32e-43 2.4988e-41 -5.4e-43 -9.98e-42 9.986e-42 -1.6987e-41 -1.6971e-41
-1.7005e-41 3.014e-42 2.497e-41 -6.07e-43 -1.4987e-41 2.4973e-41 1.6974e-41 2.4967e-41
2.4998e-41 1.6974e-41 1.6926e-41 -1.002e-41 -2.5027e-41 2.4967e-41 2.4985e-41 -2.4974e-41
2.4954e-41 -1.6985e-41 -1.6992e-41 1.6974e-41 -2.4985e-41 1.6973e-41 2.5002e-41 1.6982e-41
-2.4984e-41 -1.7009e-41 -5.93e-43 -6.07e-43 -1.6996e-41 -1.6975e-41 -2.495e-41 -2.4968e-41
6.11e-43 -1.6994e-41 -2.4915e-41 1.4981e-41 6.24e-43 5.86e-43 -2.4966e-41 -2.498e-41
2.591e-41 -2.4966e-41 -6.46e-43 2.5031e-41 2.4981e-41 -6.07e-43 9.997e-42 4.6173e-41
5.2214e-41 -2.4971e-41 5.219e-41 1.696e-41 -1.6968e-41 3.014e-42 1.6991e-41 1.4987e-41
5.879e-41 2.4966e-41 3.6554e-41 -2.5029e-41 1.6911e-41 -2.4985e-41 1.6987e-41 1.4973e-41
6.15e-43 -1.6982e-41 -2.4961e-41 -5.91e-43 -5.86e-43 6.24e-43 -9.987e-42 1.6987e-41
-1.6953e-41 1.4985e-41 6.43e-43 1.6973e-41 -1.6982e-41 2.4974e-41 1.6897e-41 5.82e-43
-1.4984e-41 -1.6984e-41 -5.54e-43 1.6949e-41 2.4964e-41 -3.6123e-41 -2.5017e-41 1.7003e-41
-1.6985e-41 -5.84e-43 -6.5e-43 -2.5005e-41 -2.996e-42 1.698e-41 -2.5005e-41 2.4961e-41
-6.15e-43 9.981e-42 -5.91e-43 -3.017e-42 -9.979e-42 -1.4978e-41 1.7026e-41 2.4964e-41
-1.6981e-41 -1.6984e-41 5.5033e-41 -2.4968e-41 1.6953e-41 2.4964e-41 -5.91e-43 -1.695e-41
1.6937e-41 1.6994e-41 -1.4583e-41 -5.83e-43 1.7005e-41 -2.4975e-41 1.695e-41 -3.9748e-41
-3.0634e-41 -5.93e-43 -1.694e-41 -5.98e-43 -6.05e-43 2.5003e-41 1.498e-41 -2.4985e-41
1.4983e-41 -2.499e-41 -1.7008e-41 5.959e-41 -1.6988e-41 -1.7146e-41 5.98e-43 2.4954e-41
-1.6999e-41 -1.6936e-41 -2.5005e-41 6.01e-43 -2.996e-42 -6.52e-43 -1.4952e-41 6.26e-43
-5.86e-43 6.07e-43 -2.501e-41 -2.4938e-41 -5.84e-43 1.4959e-41 1.6987e-41 -6.447e-42
-1.6984e-41 2.4968e-41 2.694e-41 -5.86e-43 2.89e-43 1.696e-41 2.4978e-41 -1.6981e-41
-1.7022e-41 -5.83e-43 -2.497e-41 -2.496e-41 -1.6926e-41 1.7008e-41 -2.4933e-41 -2.4982e-41
-1.6971e-41 2.493e-41 -6.01e-43 5.96e-43 5.8e-43 -6.12e-43 2.4964e-41 -1.6949e-41
00000000: 5a2f 0080 be01 0000 d81b 0080 6608 0080
00000010: c629 0000 5e2f 0000 762f 0000 a201 0080
00000020: 2b2f 0080 c545 0000 a401 0080 a145 0080
00000030: 9f01 0080 8a01 0000 9a01 0000 5b2f 0000
00000040: 5e2f 0000 c329 0080 bd01 0080 582f 0000
00000050: cb01 0080 642f 0000 f6a3 0080 542f 0000
00000060: 9945 0080 592f 0080 5d2f 0000 6808 0000
00000070: 4d2f 0080 b101 0080 9701 0080 a701 0080
00000080: d31b 0080 7e2f 0080 9045 0080 a301 0000
00000090: 4b2f 0080 aa01 0080 5b2f 0080 9545 0080
000000a0: 4d2f 0080 a301 0080 b601 0080 d11b 0000
000000b0: 4d2f 0000 292f 0000 4d2f 0080 d501 0080
000000c0: c301 0080 5b2f 0080 b245 0080 a401 0080
000000d0: e32f 0080 a645 0000 b701 0000 5842 0080
000000e0: 9a45 0080 ae01 0000 d51b 0080 462f 0000
000000f0: 5c2f 0000 9d45 0080 a401 0080 4a08 0080
00000100: 442f 0000 a045 0080 c645 0000 b245 0080
00000110: 9a45 0080 a045 0080 af01 0000 d401 0000
00000120: 9a01 0000 c301 0080 a845 0000 8101 0080
00000130: d21b 0080 d61b 0000 5a2f 0080 4f2f 0080
00000140: 672f 0080 6708 0000 9b45 0000 b101 0080
00000150: c729 0080 9d45 0000 512f 0000 9945 0000
00000160: af45 0000 512f 0000 2f2f 0000 ef1b 0080
00000170: c445 0080 9945 0000 a645 0000 9e45 0080
00000180: 9045 0000 592f 0080 5e2f 0080 512f 0000
00000190: a645 0080 502f 0000 b245 0000 572f 0000
000001a0: a545 0080 6a2f 0080 a701 0080 b101 0080
000001b0: 612f 0080 522f 0080 8d45 0080 9a45 0080
000001c0: b401 0000 5f2f 0080 7445 0080 c329 0000
000001d0: bd01 0000 a201 0000 9845 0080 a245 0080
000001e0: 3a48 0000 9845 0080 cd01 0080 c745 0000
000001f0: a345 0000 b101 0080 de1b 0000 b680 0000
00000200: 8d91 0000 9c45 0080 7c91 0000 472f 0000
00000210: 4d2f 0080 6708 0000 5d2f 0000 c729 0000
00000220: e2a3 0000 9845 0000 e665 0000 c545 0080
00000230: 242f 0000 a645 0080 5a2f 0000 bd29 0000
00000240: b701 0000 572f 0080 9545 0080 a601 0080
00000250: a201 0080 bd01 0000 d71b 0080 5a2f 0000
00000260: 422f 0080 c629 0000 cb01 0000 502f 0000
00000270: 572f 0080 9e45 0000 1a2f 0000 9f01 0000
00000280: c529 0080 582f 0080 8b01 0080 3f2f 0000
00000290: 9745 0000 b264 0080 bd45 0080 662f 0000
000002a0: 592f 0080 a101 0080 d001 0080 b445 0080
000002b0: 5a08 0080 552f 0000 b445 0080 9545 0000
000002c0: b701 0080 d31b 0000 a601 0080 6908 0080
000002d0: d11b 0080 c129 0080 762f 0000 9745 0000
000002e0: 562f 0080 582f 0080 6999 0000 9a45 0080
000002f0: 422f 0000 9745 0000 a601 0080 402f 0080
00000300: 372f 0000 5f2f 0000 a728 0080 a001 0080
00000310: 672f 0000 9f45 0080 402f 0000 cd6e 0080
00000320: 6555 0080 a701 0080 392f 0080 ab01 0080
00000330: b001 0080 b345 0000 c229 0000 a645 0080
00000340: c429 0000 a945 0080 692f 0080 1da6 0000
00000350: 5b2f 0080 cc2f 0080 ab01 0000 9045 0000
00000360: 632f 0080 362f 0080 b445 0080 ad01 0000
00000370: 5a08 0080 d101 0080 ae29 0080 bf01 0000
00000380: a201 0080 b101 0000 b845 0080 8445 0080
00000390: a101 0080 b329 0000 5a2f 0000 f911 0080
000003a0: 582f 0080 9a45 0000 194b 0000 a201 0080
000003b0: ce00 0000 472f 0000 a145 0000 562f 0080
000003c0: 732f 0080 a001 0080 9b45 0080 9445 0080
000003d0: 2f2f 0080 692f 0000 8145 0080 a445 0080
000003e0: 4f2f 0080 7f45 0000 ad01 0080 a901 0000
000003f0: 9e01 0000 b501 0080 9745 0000 3f2f 0080

820 f4 [16, 16]
-1.6978e-41 -2.967e-42 6.24e-43 -2.4985e-41 -2.4956e-41 -1.7152e-41 -3.9895e-41 -6.07e-43
6.07e-43 -1.001e-41 1.6952e-41 2.4967e-41 2.4978e-41 2.4961e-41 4.6188e-41 6.43e-43
-4.6157e-41 2.4968e-41 -6.07e-43 6.54e-43 -5.66e-43 -3.006e-42 2.4968e-41 5.96e-43
9.58e-42 -5.84e-43 -6.56e-43 -1.6973e-41 -5.87e-43 -5.2055e-41 -2.4973e-41 1.0001e-41
5.97e-43 5.86e-43 1.6978e-41 5.9e-43 -1.6946e-41 -1.6988e-41 6.15e-43 1.7006e-41
1.003e-41 -1.6992e-41 2.498e-41 -2.5003e-41 -2.986e-42 2.5005e-41 -1.6987e-41 -5.83e-43
5.7e-43 1.6947e-41 1.6974e-41 5.72e-43 1.7174e-41 5.9e-43 2.4963e-41 1.6945e-41
-1.6985e-41 1.6964e-41 9.981e-42 -2.97e-42 -5.93e-43 -5.86e-43 6.03e-43 -2.5003e-41
1.6994e-41 -9.993e-42 2.5009e-41 -4.6306e-41 6.43e-43 6.21e-43 1.4527e-41 -5.65e-43
5.86e-43 -2.5008e-41 6.25e-43 6.36e-43 -2.4963e-41 1.6945e-41 -1.6973e-41 1.6949e-41
-2.4975e-41 -2.2e-41 2.5031e-41 -1.699e-41 -1.6966e-41 1.6942e-41 1.4988e-41 -1.6893e-41
1.6936e-41 5.66e-43 3.013e-42 -1.4969e-41 -2.4968e-41 -2.4982e-41 -2.5013e-41 -1.699e-41
2.5031e-41 -1.6985e-41 5.2337e-41 1.6905e-41 1.6943e-41 -9.979e-42 -3.011e-42 -1.699e-41
1.6966e-41 1.6981e-41 -6.45e-43 -2.4964e-41 2.4975e-41 1.6987e-41 -6.4e-43 -5.2333e-41
2.4996e-41 -5.91e-43 -5.69e-43 -5.9e-43 6.24e-43 6e-43 2.4985e-41 2.4966e-41
6.04e-43 -2.4957e-41 1.7006e-41 1.6968e-41 -2.4956e-41 -1.6977e-41 -2.4974e-41 1.6929e-41
2.4971e-41 9.986e-42 1.6984e-41 -6.18e-43 -1.4956e-41 1.4974e-41 -2.4786e-41 5.9e-43
2.5913e-41 5.73e-43 -1.6973e-41 5.86e-43 -2.4966e-41 -5.87e-43 -2.502e-41 9.99e-42
6.03e-43 -1.6964e-41 1.499e-41 -5.84e-43 1.6975e-41 -3.011e-42 1.6959e-41 -2.5006e-41
5.94e-43 9.997e-42 -1.6975e-41 2.4981e-41 -2.4971e-41 -6.04e-43 -5.65e-43 -1.4984e-41
5.73e-43 6.43e-43 -1.002e-41 2.4982e-41 6.18e-43 1.4983e-41 -3.6528e-41 -2.5005e-41
-2.5006e-41 -1e-41 -2.4968e-41 1.6984e-41 2.4963e-41 -6.07e-43 2.5e-41 6.3e-43
3.9905e-41 2.4945e-41 6.29e-43 -1.692e-41 -9.991e-42 -3.01e-42 -2.4964e-41 2.5024e-41
1.6988e-41 9.986e-42 -9.984e-42 2.4975e-41 -2.4961e-41 5.35e-43 5.96e-43 5.89e-43
1.6923e-41 -6.28e-43 -3.009e-42 -6.49e-43 3.009e-42 -5.87e-43 6.08e-43 -5.97e-43
6.07e-43 2.4995e-41 -3.9769e-41 5.8777e-41 -9.98e-42 -2.497e-41 -3.002e-42 5.96e-43
6e-43 -2.4968e-41 -2.4984e-41 1.6998e-41 -1.6974e-41 -1.6968e-41 -2.501e-41 -2.5911e-41
1.6988e-41 1.6998e-41 1.0005e-41 1.6992e-41 -1.6982e-41 2.498e-41 -5.79e-43 6.05e-43
1.6977e-41 -6.29e-43 2.4964e-41 2.4938e-41 2.4915e-41 5.96e-43 5.96e-43 -2.989e-42
6.26e-43 1.6998e-41 1.4983e-41 5.91e-43 1.6959e-41 -1.6991e-41 -5.93e-43 -2.4977e-41
1.694e-41 5.93e-43 -5.89e-43 2.4992e-41 -1.7017e-41 3.009e-42 -2.4981e-41 -1.2629e-41
5.91e-43 2.4998e-41 -2.4966e-41 2.497e-41 2.497e-41 2.4961e-41 9.99e-42 -2.4968e-41
00000000: 542f 0080 4508 0080 bd01 0000 a645 0080
00000010: 9145 0080 d02f 0080 366f 0080 b101 0080
00000020: b101 0000 e71b 0080 412f 0000 9945 0000
00000030: a145 0000 9545 0000 c180 0000 cb01 0000
00000040: ab80 0080 9a45 0000 b101 0080 d301 0000
00000050: 9401 0080 6108 0080 9a45 0000 a901 0000
00000060: b51a 0000 a101 0080 d401 0080 502f 0080
00000070: a301 0080 1c91 0080 9d45 0080 e11b 0000
00000080: aa01 0000 a201 0000 542f 0000 a501 0000
00000090: 3d2f 0080 5b2f 0080 b701 0000 682f 0000
000000a0: f61b 0000 5e2f 0080 a245 0000 b345 0080
000000b0: 5308 0080 b445 0000 5a2f 0080 a001 0080
000000c0: 9701 0000 3e2f 0000 512f 0000 9801 0000
000000d0: e02f 0000 a501 0000 9645 0000 3c2f 0000
000000e0: 592f 0080 4a2f 0000 d31b 0000 4708 0080
000000f0: a701 0080 a201 0080 ae01 0000 b345 0080
00000100: 5f2f 0000 db1b 0080 b745 0000 1581 0080
00000110: cb01 0000 bb01 0000 7f28 0000 9301 0080
00000120: a201 0000 b645 0080 be01 0000 c601 0000
00000130: 9645 0080 3c2f 0000 502f 0080 3f2f 0000
00000140: 9f45 0080 543d 0080 c745 0000 5c2f 0080
00000150: 4b2f 0080 3a2f 0000 c829 0000 172f 0080
00000160: 362f 0000 9401 0000 6608 0000 ba29 0080
00000170: 9a45 0080 a445 0080 ba45 0080 5c2f 0080
00000180: c745 0000 592f 0080 e591 0000 202f 0000
00000190: 3b2f 0000 d11b 0080 6508 0080 5c2f 0080
000001a0: 4b2f 0000 562f 0000 cc01 0080 9745 0080
000001b0: 9f45 0000 5a2f 0000 c901 0080 e291 0080
000001c0: ae45 0000 a601 0080 9601 0080 a501 0080
000001d0: bd01 0000 ac01 0000 a645 0000 9845 0000
000001e0: af01 0000 9245 0080 682f 0000 4d2f 0000
000001f0: 9145 0080 532f 0080 9e45 0080 312f 0000
00000200: 9c45 0000 d61b 0000 582f 0000 b901 0080
00000210: b129 0080 be29 0000 1845 0080 a501 0000
00000220: 3c48 0000 9901 0000 502f 0080 a201 0000
00000230: 9845 0080 a301 0080 bf45 0080 d91b 0000
00000240: ae01 0000 4a2f 0080 c929 0000 a101 0080
00000250: 522f 0000 6508 0080 462f 0000 b545 0080
00000260: a801 0000 de1b 0000 522f 0080 a345 0000
00000270: 9c45 0080 af01 0080 9301 0080 c529 0080
00000280: 9901 0000 cb01 0000 ef1b 0080 a445 0000
00000290: b901 0000 c429 0000 d365 0080 b445 0080
000002a0: b545 0080 e01b 0080 9a45 0080 582f 0000
000002b0: 9645 0000 b101 0080 b145 0000 c201 0000
000002c0: 3d6f 0000 8945 0000 c101 0000 2b2f 0080
000002d0: da1b 0080 6408 0080 9745 0080 c245 0000
000002e0: 5b2f 0000 d61b 0000 d51b 0080 9f45 0000
000002f0: 9545 0080 7e01 0000 a901 0000 a401 0000
00000300: 2d2f 0000 c001 0080 6308 0080 cf01 0080
00000310: 6308 0000 a301 0080 b201 0000 aa01 0080
00000320: b101 0000 ad45 0000 dc6e 0080 d9a3 0000
00000330: d21b 0080 9b45 0080 5e08 0080 a901 0000
00000340: ac01 0000 9a45 0080 a545 0080 622f 0000
00000350: 512f 0080 4d2f 0080 b845 0080 3b48 0080
00000360: 5b2f 0000 622f 0000 e41b 0000 5e2f 0000
00000370: 572f 0080 a245 0000 9d01 0080 b001 0000
00000380: 532f 0000 c101 0080 9745 0000 8445 0000
00000390: 7445 0000 a901 0000 a901 0000 5508 0080
000003a0: bf01 0000 622f 0000 c429 0000 a601 0000
000003b0: 462f 0000 5d2f 0080 a701 0080 a045 0080
000003c0: 392f 0000 a701 0000 a401 0080 ab45 0000
000003d0: 702f 0080 6308 0000 a345 0080 3423 0080
000003e0: a601 0000 af45 0000 9845 0080 9b45 0000
000003f0: 9b45 0000 9545 0000 d91b 0000 9a45 0080

821 f4 [16, 16]
2.5023e-41 -1.4942e-41 6.28e-43 6.18e-43 -1.6973e-41 1.496e-41 -2.4968e-41 -1.6998e-41
2.5932e-41 -5.97e-43 -2.4968e-41 2.5031e-41 2.4981e-41 -1.4945e-41 2.5029e-41 -5.89e-43
1.6893e-41 2.992e-42 6.57e-43 1.6982e-41 -6.08e-43 -2.497e-41 1.6922e-41 1.6968e-41
1.4973e-41 -1.4983e-41 1.6918e-41 1.0008e-41 2.4977e-41 -1.69e-41 -2.499e-41 2.4973e-41
1.6982e-41 -6.47e-43 -1.4988e-41 1.6995e-41 -2.1957e-41 -9.984e-42 2.4978e-41 6.56e-43
-5.97e-43 1.699e-41 5.94e-43 5.98e-43 2.5e-41 1.6971e-41 -1.6915e-41 6.01e-43
-6.17e-43 5.97e-43 1.7015e-41 -1.6985e-41 1.4985e-41 -1.696e-41 -5.96e-43 -5.22e-41
6.38e-43 -5.7e-43 -5.87e-43 2.4995e-41 5.9e-43 -2.496e-41 -1.6978e-41 -1.6981e-41
-2.4968e-41 -2.5022e-41 2.4981e-41 6.07e-43 -1.7143e-41 -2.5031e-41 -2.99e-42 5.97e-43
2.4985e-41 1.7038e-41 2.4966e-41 2.5009e-41 1.6953e-41 -1.7854e-41 -1.6968e-41 -2.4973e-41
1.6935e-41 -2.4939e-41 1.4984e-41 3.004e-42 -9.988e-42 1.6992e-41 6.25e-43 -5.9e-43
1.6975e-41 1.6985e-41 -1.6919e-41 -2.4939e-41 -6.08e-43 -5.86e-43 5.96e-43 4.33e-43
2.499e-41 -2.983e-42 1.6971e-41 2.498e-41 1.6925e-41 -2.4971e-41 1.6968e-41 -5.94e-43
3.013e-42 1.6999e-41 6.18e-43 5.86e-43 5.8e-43 2.4974e-41 -5.89e-43 2.498e-41
1.6994e-41 -6.04e-43 -1.6968e-41 -2.497e-41 6.5e-43 -2.4938e-41 9.993e-42 -9.993e-42
-1.6964e-41 1.6984e-41 1.4935e-41 1.6992e-41 -2.5909e-41 9.99e-42 -2.4998e-41 -5.8e-43
-2.5027e-41 -5.91e-43 2.493e-41 2.4966e-41 2.5023e-41 2.975e-42 -2.4974e-41 1.7006e-41
-1.6973e-41 -2.5003e-41 2.4961e-41 6.07e-43 1.692e-41 -1.6981e-41 -5.72e-43 2.4953e-41
-6.01e-43 5.96e-43 5.76e-43 -5.98e-43 2.4984e-41 1.698e-41 -6e-43 1.6974e-41
-2.4954e-41 -1.4963e-41 -2.5024e-41 9.592e-42 1.7031e-41 2.4961e-41 4.6184e-41 -1.0029e-41
-1.702e-41 1.6946e-41 6.01e-43 2.975e-42 -3.007e-42 -5.96e-43 -1.6945e-41 2.4984e-41
6.5e-43 1.698e-41 -2.5031e-41 -2.97e-43 6.54e-43 5.2338e-41 -1.6901e-41 2.4981e-41
1.4524e-41 1.6959e-41 6.57e-43 4.6146e-41 -1.6974e-41 -2.993e-42 1.6984e-41 1.6973e-41
-2.493e-41 -1.6947e-41 -1.6984e-41 -1.4974e-41 -2.5003e-41 2.501e-41 1.6967e-41 6.07e-43
-2.4988e-41 -1.6984e-41 9.589e-42 -2.4995e-41 5.8839e-41 -6.07e-43 -2.5927e-41 5.68e-43
1.6966e-41 1.6988e-41 -5.82e-43 -5.94e-43 -2.2e-41 -1.6994e-41 -6.24e-43 -1.4977e-41
-5.93e-43 1.6992e-41 6.1e-43 5.47e-43 2.495e-41 2.4973e-41 1.6968e-41 3.007e-42
-1.6984e-41 -5.83e-43 -2.5033e-41 -2.5016e-41 5.98e-43 9.981e-42 -2.993e-42 -1.4973e-41
1.6945e-41 -1.6982e-41 2.4964e-41 2.4999e-41 4.0038e-41 -1.6991e-41 2.5918e-41 -2.4974e-41
1.6984e-41 -5.93e-43 2.502e-41 5.96e-43 5.83e-43 5.83e-43 1.7002e-41 3.009e-42
-9.986e-42 6.25e-43 1.6918e-41 2.5617e-41 -6.03e-43 5.86e-43 2.4961e-41 1.4943e-41
1.4971e-41 -1.7009e-41 5.86e-43 -6.07e-43 5.9e-43 2.4971e-41 1.6982e-41 -1.6956e-41
00000000: c145 0000 a729 0080 c001 0000 b901 0000
00000010: 502f 0080 b429 0000 9a45 0080 622f 0080
00000020: 4a48 0000 aa01 0080 9a45 0080 c745 0000
00000030: a345 0000 a929 0080 c545 0000 a401 0080
00000040: 172f 0000 5708 0000 d501 0000 572f 0000
00000050: b201 0080 9b45 0080 2c2f 0000 4d2f 0000
00000060: bd29 0000 c429 0080 292f 0000 e61b 0000
00000070: a045 0000 1c2f 0080 a945 0080 9d45 0000
00000080: 572f 0000 ce01 0080 c829 0080 602f 0000
00000090: 353d 0080 d51b 0080 a145 0000 d401 0000
000000a0: aa01 0080 5c2f 0000 a801 0000 ab01 0000
000000b0: b145 0000 4f2f 0000 272f 0080 ad01 0000
000000c0: b801 0080 aa01 0000 6e2f 0000 592f 0080
000000d0: c629 0000 472f 0080 a901 0080 8391 0080
000000e0: c701 0000 9701 0080 a301 0080 ad45 0000
000000f0: a501 0000 9445 0080 542f 0080 562f 0080
00000100: 9a45 0080 c045 0080 a345 0000 b101 0000
00000110: ca2f 0080 c745 0080 5608 0080 aa01 0000
00000120: a645 0000 7f2f 0000 9845 0000 b745 0000
00000130: 422f 0000 c531 0080 4d2f 0080 9d45 0080
00000140: 352f 0000 8545 0080 c529 0000 6008 0000
00000150: d81b 0080 5e2f 0000 be01 0000 a501 0080
00000160: 522f 0000 592f 0000 2a2f 0080 8545 0080
00000170: b201 0080 a201 0080 a901 0000 3501 0000
00000180: a945 0000 5108 0080 4f2f 0000 a245 0000
00000190: 2e2f 0000 9c45 0080 4d2f 0000 a801 0080
000001a0: 6608 0000 632f 0000 b901 0000 a201 0000
000001b0: 9e01 0000 9e45 0000 a401 0080 a245 0000
000001c0: 5f2f 0000 af01 0080 4d2f 0080 9b45 0080
000001d0: d001 0000 8445 0080 db1b 0000 db1b 0080
000001e0: 4a2f 0080 582f 0000 a229 0000 5e2f 0000
000001f0: 3948 0080 d91b 0000 af45 0080 9e01 0080
00000200: c445 0080 a601 0080 7f45 0000 9845 0000
00000210: c145 0000 4b08 0000 9e45 0080 682f 0000
00000220: 502f 0080 b345 0080 9545 0000 b101 0000
00000230: 2b2f 0000 562f 0080 9801 0080 8f45 0000
00000240: ad01 0080 a901 0000 9b01 0000 ab01 0080
00000250: a545 0000 552f 0000 ac01 0080 512f 0000
00000260: 9045 0080 b629 0080 c245 0080 bd1a 0000
00000270: 7a2f 0000 9545 0000 be80 0000 f51b 0080
00000280: 722f 0080 3d2f 0000 ad01 0000 4b08 0000
00000290: 6208 0080 a901 0080 3c2f 0080 a545 0000
000002a0: d001 0000 552f 0000 c745 0080 d400 0080
000002b0: d301 0000 e691 0000 1d2f 0080 a345 0000
000002c0: 7d28 0000 462f 0000 d501 0000 a380 0000
000002d0: 512f 0080 5808 0080 582f 0000 502f 0000
000002e0: 7f45 0080 3e2f 0080 582f 0080 be29 0080
000002f0: b345 0080 b845 0000 4c2f 0000 b101 0000
00000300: a845 0080 582f 0080 bb1a 0000 ad45 0080
00000310: 05a4 0000 b101 0080 4648 0080 9501 0000
00000320: 4b2f 0000 5b2f 0000 9f01 0080 a801 0080
00000330: 543d 0080 5f2f 0080 bd01 0080 c029 0080
00000340: a701 0080 5e2f 0000 b301 0000 8601 0000
00000350: 8d45 0000 9d45 0000 4d2f 0000 6208 0000
00000360: 582f 0080 a001 0080 c845 0080 bc45 0080
00000370: ab01 0000 d31b 0000 5808 0080 bd29 0080
00000380: 3c2f 0000 572f 0080 9745 0000 b045 0000
00000390: 9c6f 0000 5d2f 0080 4048 0000 9e45 0080
000003a0: 582f 0000 a701 0080 bf45 0000 a901 0000
000003b0: a001 0000 a001 0000 652f 0000 6308 0000
000003c0: d61b 0080 be01 0000 292f 0000 6947 0000
000003d0: ae01 0080 a201 0000 9545 0000 a829 0000
000003e0: bc29 0000 6a2f 0080 a201 0000 b101 0080
000003f0: a501 0000 9c45 0000 572f 0000 442f 0080
